model/slr_model.tflite (tflite, 7420 bytes, 6 tensors)

sequential/dense/BiasAdd/ReadVariableOp f4 [20]
00000000: 0f82 393f d127 07c0 bf5d 09c0 9e0c 21be
00000010: e1ce e8bf 06f3 03bf b532 603f 9795 573e
00000020: e608 b8bf 5280 063e db62 8cbe d4c6 4e3f
00000030: 61fb 1b3f c2a1 a73e 8147 fdbe 020f 3fbd
00000040: 36ba 1ac0 2db9 d5bf 4c87 dd3e 636a 303f
0.7246408 -2.1118052 -2.1463468 -0.1572747 -1.8188134 -0.515427 0.8757737 0.21053158
-1.4377716 0.13134888 -0.2741917 0.8077214 0.6093045 0.327406 -0.49468616 -0.046645172
-2.4176154 -1.6697136 0.43267286 0.68912333

sequential/dense_2/BiasAdd/ReadVariableOp f4 [24]
00000000: 2015 863f 7aee 5abf f60d 1dc0 640f eb3f
00000010: 6ddf 3dbf 9555 aebe 3fb2 85be 0472 d3bf
00000020: 3eaf c43e 6572 923e c8d2 0940 a085 5abf
00000030: 62c8 123f dffe 70bf 3ab7 c9bf e787 01c0
00000040: 796e c23f 4389 74be a956 b83e f3bd 573f
00000050: 39b6 7b3f d79c 6a3c 380b 21bf a9c9 a83e
1.0475197 -0.85520136 -2.453977 1.8364072 -0.74169046 -0.3404967 -0.26112553 -1.651917
0.3841495 0.286029 2.15349 -0.85360146 0.5733701 -0.941389 -1.5759041 -2.0239198
1.5189964 -0.23880486 0.36003616 0.84274215 0.98324925 0.01431962 -0.62907743 0.32966354

sequential/dense_1/BiasAdd/ReadVariableOp f4 [10]
00000000: 7a22 423f 69c6 3d40 abab 27be e051 503f
00000010: 6a36 3fbf 5940 7e3f a0bc ce3e 2729 523f
00000020: 7fca d83e 9eb5 03bd
0.7583386 2.965235 -0.1637408 0.8137493 -0.74692404 0.99316937 0.40378284 0.82094043
0.42341992 -0.032155626

sequential/dense/MatMul f4 [20, 42]
00000000: bc3b 913e 5027 7cbe fbcc b8be d336 a03e
00000010: cd0c 4ebe be5f 323d 413e bdbd 6e55 d23c
00000020: 4dfd b83e 8610 a9bc 7110 0fbe 7f51 4dbc
00000030: 80a3 d4be 31e0 823c 21d8 04bf 873c 8f3d
00000040: b697 1bbf 8114 a63d b0c7 9a3e 1bb3 a5bb
00000050: f68e bdbe 8d83 b1bb 541a cf3e 42d7 91bd
00000060: 3891 843f 5975 7ebd c68f 123f 22e7 3c3d
00000070: b24c aebf 9a4b 8a3d 8baf 5dc0 4052 5c3e
00000080: 4ef7 9bc0 7496 863e 6ec6 e33d 2de3 c43c
00000090: c0e1 c0be 0e60 c43c d82c 57bf f8fb a13d
000000a0: 944f 9fbf dcf2 c23d 20e8 f5bd f879 823e
000000b0: 530d 3abe 8296 afbe 5edb 5abe b971 79bd
000000c0: 7540 ffbe 5760 9b3b 2bd4 51bf fe05 5ebc
000000d0: d9c8 523e 179b d53b 84ad c63d 691c 143c
000000e0: 331c 0ebe ca6b 113d 4825 c4be a17f 4b3d
000000f0: ee3a 3a3f 4190 343c f56c b33e 9766 2d3c
00000100: 02c9 85be 1f18 92bc 3c19 47bf 31ad 483c
00000110: 80dc c73e e341 f43b 708c 593f d994 a93b
00000120: 96f1 113f e0bf ce3b de81 adbe b275 27c0
00000130: d369 2d3d 8e59 8b3c 5550 023f e038 0fbb
00000140: 4389 8a3f 602b 42bd cd43 843f 7174 cfbc
00000150: 1298 993e 946f 84be 26f9 f0be f8e2 56bc
00000160: 1bba dc3d 8ffe 0cbe 0ec1 303f ab28 4ebd
00000170: 2620 3f3f eb93 333d 4ddc 513d 71d1 40bd
00000180: 379f 0e3d 8c33 13bd d7bb 15bd fc1f cdbc
00000190: b141 34bd dc2b 413d 85c7 8a3d 4dd2 c5bd
000001a0: 3a62 c2be 2f11 17be eb58 3dbf a623 83be
000001b0: ea3f 84bf c886 0ebe c601 983e 68a4 fdbd
000001c0: 5914 7dbd e195 90be bc6e b7bd 898f 92bf
000001d0: f4cf fabd 1bb9 62bf 35d8 a93e ecee 66be
000001e0: 4aae 72bd d2cf 2abe 41dc 05bf 939c d0be
000001f0: f531 82bf 8972 c5be 8827 c7bd d2a4 81be
00000200: d62a c3bf bc0c ca3e 786c 35bf 86d1 413f
00000210: 51f8 5dbe 80b8 5a3f b74b 6bbe 4a66 563f
00000220: fb7b 92be d991 373f 4d50 70be 41f1 2c3f
00000230: 8e53 10be 68db 353f f76d ccbd 347d 673f
00000240: 4b9d cabd 87dc c73f ffe2 30be b8a5 833f
00000250: 9610 06bf 94c1 dc3e ee40 45bf 6ed3 ce3e
00000260: e76c 59be dfcc 0740 b7bb 45be 25e4 483f
00000270: 4879 50be 15ed 47bc a8db b0be 3f44 b03e
00000280: 0b1b abbd f7a6 ff3e 7f98 f2bd a28d 203f
00000290: cef9 f6be f384 7b3e 5863 1dbf d1dd 15be
000002a0: 082e ae3d ba44 913e 780f 22be 17c7 4abe
000002b0: 05d1 97be 3bb7 d0bd 0ad5 f0bf a0c3 c0bd
000002c0: e4b3 3fc0 ecab 4fbe 4b9c 6f3e 3fa2 40bd
000002d0: a30c 9e3e 3f69 47bd 98f3 943c 1165 a2bd
000002e0: 05c9 e5bd 3518 03be 955e 083f 4554 a1bd
000002f0: f7a6 0d3f 0383 94ba ca0b cdbd 0ece 8a3c
00000300: 430c 33bf 9fd8 033d ea23 2b3f 511c a1bd
00000310: 3050 cb3e 8235 b3bc cbae 8b3e f9d3 8abd
00000320: e2ff 403e 7ab0 e1bc a012 953e 1e82 b4bd
00000330: 425c ed3e f8fb 88bd 96b9 663f 3cb6 26be
00000340: 5270 9a3f c1cb 8ebf df99 0fbe 3089 763e
00000350: 19c8 623f ed21 20c0 7f35 803f 5438 92bf
00000360: 7de7 ca3f 84e8 39bf 131e c43f 9d35 67bf
00000370: f83e 143e 9d69 30be d37a 1fbe 6f22 00be
00000380: 076f c6bd 18bf 283c 418a 30bc 84ac 5c3c
00000390: 1f08 1f3d e8c0 61bd ebcf 88be 3355 19bc
000003a0: 6ce3 243d 7155 d83d 9da6 c33e 23fc 943d
000003b0: cbb3 cb3e cb35 89bc 3635 a8be ec09 8cbc
000003c0: 2627 01bf 79aa b93d e871 5ebe cec5 903d
000003d0: 3378 8f3e 0c2e 643d d980 12bf d398 033e
000003e0: 490c 51bf 7ada 873e cb2a f1be a292 a73e
000003f0: 36ae dabd 3da8 4abe caa0 b1be 2478 f73f
0.28365886 -0.24624372 -0.36093888 0.31291828 -0.2012207 0.043548338 -0.092403896 0.025675502
0.36130753 -0.020637762 -0.13971116 -0.012531637 -0.4153099 0.015976043 -0.51892287 0.069939665
-0.6077837 0.081093796 0.30230474 -0.0050567514 -0.37023133 -0.0054172934 0.40449774 -0.07121135
1.0356817 -0.06212363 0.5725063 0.046118863 -1.3617156 0.06752701 -3.4638393 0.21515751
-4.8739386 0.26286662 0.11121832 0.024034107 -0.37672234 0.023971584 -0.840528 0.07909387
-1.244616 0.09518978 -0.12007165 0.2548368 -0.18169145 -0.34294516 -0.21372744 -0.06089947
-0.49853864 0.004741709 -0.8196437 -0.013551233 0.2058443 0.0065187323 0.09701064 0.009039977
-0.13877945 0.035503186 -0.38309693 0.049682263 0.7274617 0.011020721 0.35044065 0.010583541
-0.2612992 -0.017833767 -0.7777288 0.012248323 0.39035416 0.0074541434 0.84979916 0.0051752147
0.57009256 0.0063094944 -0.33888143 -2.6165586 0.04233725 0.017010476 0.50903827 -0.0021853969
1.0823139 -0.047404647 1.0333191 -0.025324078 0.29998833 -0.25866377 -0.47065085 -0.013115637
0.10777684 -0.13768981 0.6904458 -0.050331753 0.7465843 0.043842237 0.051235486 -0.04707474
0.034819808 -0.03593783 -0.03655609 -0.025039665 -0.04400796 0.04716097 0.067763366 -0.09659252
-0.37965566 -0.14752649 -0.73963803 -0.25613135 -1.0332005 -0.13918602 0.29688853 -0.12384874
-0.061786983 -0.2823935 -0.08956668 -1.1450053 -0.12246695 -0.885637 0.33172765 -0.22552079
-0.059248246 -0.1668084 -0.52289206 -0.40744457 -1.0171496 -0.38563946 -0.09724337 -0.2532106
-1.5247447 0.3946284 -0.70868635 0.7571033 -0.21676756 0.85437775 -0.22978102 0.8374983
-0.28610215 0.7170692 -0.23468132 0.67555624 -0.14094374 0.7103791 -0.09981912 0.9042542
-0.098932825 1.5614175 -0.17274092 1.0284948 -0.5236906 0.43116438 -0.770522 0.40395683
-0.21232949 2.1218793 -0.19309889 0.7847312 -0.20358765 -0.012202521 -0.34542584 0.34427068
-0.083547674 0.49932072 -0.118454926 0.62716115 -0.4823746 0.24562435 -0.6147971 -0.14635397
0.085048735 0.28372747 -0.15826213 -0.19802509 -0.29651657 -0.101911984 -1.8815014 -0.094123125
-2.9953547 -0.20280427 0.23399465 -0.04702973 0.30869016 -0.048684355 0.01818256 -0.07929433
-0.11219982 -0.12802203 0.5326932 -0.07877401 0.55332893 -0.0011330548 -0.10012014 0.016943958
-0.69940585 0.032189008 0.66851676 -0.07866729 0.39709616 -0.0218761 0.27281794 -0.06778712
0.18847612 -0.02754997 0.29115772 -0.088138804 0.4635945 -0.06688684 0.9012693 -0.16280454
1.2065527 -1.1155931 -0.14023541 0.2407577 0.88586575 -2.5020707 1.0016326 -1.142344
1.5851895 -0.72620416 1.5321678 -0.9031618 0.14477146 -0.17227788 -0.15574197 -0.12513135
-0.096891455 0.010299467 -0.01077515 0.013468865 0.038826104 -0.05511561 -0.2672113 -0.009358692
0.04025595 0.10563172 0.38213053 0.07274654 0.3978561 -0.016749283 -0.32853097 -0.017094575
-0.5045036 0.09065718 -0.2172314 0.07068978 0.28021392 0.055707976 -0.57227856 0.12851267
-0.8165937 0.26533872 -0.4710296 0.3272906 -0.10677759 -0.1979074 -0.34692985 1.9333539

sequential/dense_1/MatMul f4 [10, 20]
00000000: 3917 76c0 7774 4b3e ebf5 803d 4c03 bb3e
00000010: 6f35 0e3f 63fa 643f 72f2 6c3f c506 5dbf
00000020: 71fe c13d 563c 153f 98bd ea3e eb2e 113f
00000030: dea0 5c3f 400a 09c0 04bf efbf 251a 08c0
00000040: 8e54 4fbe d732 d13f 60fc 8d3f 8015 773f
00000050: 17cb c6bd 58ee d33e 21c7 f13d 65f2 ccbf
00000060: 146d 46bd 7003 2a3f 0d93 183e 3ff4 27be
00000070: 8234 60be c0fc 833e 7123 b4bf 4ca4 913d
00000080: f75a d73f b48f 89bd 0bf4 43be 5a95 e9bd
00000090: e568 83be 40f8 55be fd11 f5be 0549 aa3c
000000a0: ed6e 0e3e 4e3f 6c3e e39d 223e fd5b 193d
000000b0: 86a0 35bd 67a2 b23f 3bbc 233d a83d c93d
000000c0: 0737 bf3e b685 313e 4f36 c1bd e3e7 dc3f
000000d0: f0a4 41bf 5ac2 253d 5f83 233e cb15 dabe
000000e0: 89b1 4ebe a859 c7be d4d9 173d d15d 4cbe
000000f0: 21f0 8a3e 9868 bc3f 7c4a c33f c40f e53d
00000100: ffdc bb3f 7109 02be 5790 503e 44b7 3e3e
00000110: cc6c 1440 e0ee 71bd 00ea 353e 7a85 e83e
00000120: c0c8 8c3e ab34 0a3e eaad 8c3c 1fe8 13be
00000130: b324 0840 f927 b9be c38f ff3b 9edf e9bf
00000140: 3afa 0d3f d0b5 e73f 7c6f c3bf 99c1 0440
00000150: b5fe 98bf a932 52bd e1a0 6b3e 9006 0a3f
00000160: 4b12 7c3e b8a3 87bd d3bc 0a40 dffa 55be
00000170: bf53 de3e d887 cc3e b5b4 7e3e a921 e63e
00000180: b16d 1bbe 7cbb 463f 3acb 30be db63 e63e
00000190: 18cc 283e 1232 2c3f d97d e63e 8ebc 073f
000001a0: 56ef b83f 6e70 d03f 46d6 9bbf b1c5 d9be
000001b0: 68b6 b5bf 8dda 02bd a4b2 613f 553c a6be
000001c0: 38ae 0a3a 2a78 1d3e ac5b 713f f092 4a3f
000001d0: 8259 a43f b368 0a40 ea0a babd ff0e 0bc0
000001e0: 1de3 91bd 432c 1a40 499f e53f 5d75 c33d
000001f0: c943 b23e 58f9 fb3e 564f 97bf be47 403e
00000200: b0cb 493f 2851 783f 21ba d3bd 214f 46bf
00000210: b1b7 ae3e ab90 4d3e bea6 923e 0e7f e43d
00000220: 4018 ac3f 8424 953f dda2 d9bd c6ab dfbf
00000230: a506 b73f 3f4f 72bd 734a 3c3f a4a7 b3bf
00000240: 87a7 593e 19ac 9c3f 3a6f 043f c747 923e
00000250: 55f2 d63f d0e4 9f3f 80f1 82bf f47f 4cbf
00000260: 6c78 4f3e aa7e 623e 8e14 4a3e b80a 953f
00000270: 2842 c2bd 6d14 28bd 866c c03d 9228 ba3e
00000280: e5c1 bcbe 2c70 153f 1351 843e e2b9 663f
00000290: c825 423e 517e a33e 438d 39be 52ae bbbe
000002a0: d6e0 b33f 0908 0a40 eb85 4a3f c380 0040
000002b0: c469 d03f 73f4 fcbd 6776 973e 2d4a 143f
000002c0: d0dc eabc 4420 aabd 4a6f 0b3f c8a8 bcbe
000002d0: 35e7 0c3f d517 293f ecea 133e 2987 9d3e
000002e0: 3314 c23f a734 b83d b691 043e b9f9 1940
000002f0: 444f e3bc 762c 0f3e e9e8 1b3e 6861 8e3f
00000300: 6e10 d43d 7784 0840 716e f03f 7794 083e
00000310: a0ca 783e d890 fcbe 7131 2d3e 0375 9c3e
-3.8451674 0.19868647 0.06296905 0.36525953 0.55550283 0.8944456 0.9255744 -0.86338454
0.09472359 0.5829519 0.45847774 0.56712216 0.86182964 -2.1412506 -1.8730168 -2.1265957
-0.20247099 1.634364 1.1092644 0.9651718 -0.09706705 0.4139278 0.11805559 -1.6011473
-0.04844387 0.66411495 0.14899845 -0.16401766 -0.2189503 0.2577877 -1.4073316 0.07111415
1.6824635 -0.06716862 -0.19136064 -0.1140544 -0.25665966 -0.20895481 -0.47865286 0.020786772
0.13909502 0.23071024 0.15880542 0.037441242 -0.04434254 1.3955811 0.039974432 0.09826213
0.3734667 0.17336163 -0.09434187 1.7258266 -0.756423 0.04046855 0.15968083 -0.42594752
-0.20184912 -0.3893559 0.03707297 -0.19957663 0.2713633 1.471942 1.5257106 0.11184648
1.4676818 -0.12698914 0.20367561 0.18624598 2.3191404 -0.0590657 0.17765045 0.45414335
0.2749691 0.13496654 0.017172772 -0.14444016 2.12724 -0.3616331 0.00779912 -1.8271368
0.5545994 1.810236 -1.5268397 2.0743163 -1.195273 -0.051317845 0.23010589 0.53916264
0.24616353 -0.06623024 2.167775 -0.20896481 0.43423268 0.3994739 0.24873622 0.44947556
-0.15178563 0.7762983 -0.17265025 0.4499806 0.16484106 0.672639 0.4501789 0.53022087
1.444804 1.6284311 -1.2174766 -0.4253364 -1.4196291 -0.031946708 0.8816321 -0.32467905
0.0005290243 0.1537787 0.94280505 0.7913046 1.2839816 2.1626403 -0.09084113 -2.1727903
-0.071233965 2.4089515 1.7939235 0.0954387 0.3481734 0.49213672 -1.1821086 0.18777367
0.7882643 0.96998835 -0.10338236 -0.7746449 0.3412452 0.20074718 0.2864284 0.11157046
1.34449 1.1651769 -0.10626767 -1.7474296 1.4298903 -0.059157606 0.735511 -1.4035535
0.21255313 1.224002 0.5173222 0.28570387 1.6792704 1.2491703 -1.022995 -0.7988274
0.20260781 0.22118631 0.19734403 1.1643896 -0.094852746 -0.041035105 0.09395699 0.36359078
-0.3686668 0.58374286 0.25843105 0.90127385 0.18959725 0.3193231 -0.18120293 -0.36656433
1.405299 2.1567404 0.7911059 2.007859 1.6282277 -0.123513125 0.2958252 0.57925683
-0.028669745 -0.083069354 0.5446669 -0.3684752 0.55040294 0.6605199 0.14445084 0.30767182
1.5162414 0.08994418 0.1294621 2.4058669 -0.027747758 0.13981804 0.15225567 1.1123476
0.10354696 2.133085 1.8783704 0.13337885 0.24296045 -0.49329257 0.16913392 0.30558023

sequential/dense_2/MatMul f4 [24, 10]
00000000: 1bf5 12bf ff82 6bbf 11f4 61bf b6d8 44be
00000010: 958d 17bf 69ee 4b3f c5bf da3e 685f 18bf
00000020: 9076 46bf 771c 08bd abbe e7be 6ad6 74be
00000030: c39d 9dbf 8c69 043f ccf0 0fbf 4904 48bf
00000040: 9b95 7f3e 309a 7abd 0196 123e 071a 423e
00000050: a6c9 6abe 62c0 eabf 187b d1be dafc 903e
00000060: 33fa 9cbe da39 00be 77f3 c73e 6416 993e
00000070: e2fb b43d 7fe6 5e3e c46c 09bf b1ae 933d
00000080: 2d90 9fbf 0ec6 acbe e247 30c0 0efc 1bbd
00000090: 2972 d03d 38c8 febe 4494 823e 5299 913d
000000a0: 065d b2bd 9702 1f3e 6d2a 38bf aba8 be3e
000000b0: e912 79bf 100e d03e 73ac 843e 8efd 0bbf
000000c0: ee1c a4be 1afa a4bf 607e bbbd 7af9 2bbf
000000d0: 76d0 3cbd 7e09 8f3f c954 a6be 5667 3cbf
000000e0: beb6 e8bd 0e11 35bf 1792 15be b138 363e
000000f0: 80da 01be 591b cebf be1e ed3e 0e74 71bf
00000100: 6093 083f ad17 d53d cf99 b1bf 8716 003e
00000110: 4937 3b3d 571d a13e 1500 89be 25bf fdbf
00000120: 52bc 883e 5f91 3d3b 723a d43e 84b1 d73c
00000130: 36fc eabe b1e5 fb3d fec5 613e ebc4 593e
00000140: 6ff6 04bf 35c7 34be b846 e0bf d7fd ce3e
00000150: d241 0ebf 8f91 163c f225 153e 6af8 f83d
00000160: bfb6 ffbf 07fa ee3d 258b 263f c4fc 313e
00000170: aab3 403f f7c5 c2bf cdd3 b9bf 1cde 95be
00000180: a1c2 47bc 8bba 84bf 8978 153f 19dc eabf
00000190: 7ec4 2bbf dc1c 5ebf 00d4 46bf 52ee 04bd
000001a0: d634 46bf eeb2 f63d 246e d0bf b036 2f3e
000001b0: 254a e0bd 7ca1 f53e 3fe2 42bf 4923 863e
000001c0: 31ed 083e 6b20 113e d689 5ebf 3e15 fc3e
000001d0: 9d95 1e3f fe41 05bf c246 c8be dc7d 25c0
000001e0: d0ef 60bf c087 c8bd c4f4 46bf a366 273e
000001f0: 797b f3bf d2ad 533f f2f4 723c 4b0c 063f
00000200: ce36 cabf 98f8 f0bf 39ad 60be ce5b e4bf
00000210: f0ee 27bf 3bc3 d03e 03ab 5dbe 21d4 28be
00000220: bce6 c73e 9d4f 123e f95b 7a3c 9ef6 153e
00000230: 6d46 583f 47f6 2c3e ca32 313f 8856 c3bf
00000240: c89a 54bf 9589 84bf ce06 d9be b310 9bbe
00000250: 497e a23e 0bb1 a1bf 5a5d 283f 91a0 14bf
00000260: 850d 123d d149 d8be 4fe2 1d3f 4b62 1cbf
00000270: 4973 05bf d6ab fcbe 9486 d53e 331e 53bf
00000280: d96b 433d 27a8 da3e 5598 01bf c010 13be
00000290: 819a 80c0 1d7a bbbf fe04 863d df5d ff3e
000002a0: 40c9 99bd cffd 82c0 0fe4 73be ec22 87be
000002b0: d778 2cbf 1b95 8d3d 6187 82bf 20dc 4e3f
000002c0: 3818 513e 6e8e 25bf 57bb 26be bc08 18bf
000002d0: 6881 c3be 5c16 6bbf 042e 6d3f 7cb0 e0bf
000002e0: fd31 fe3d 7534 22be c932 74bf 570e e43e
000002f0: a386 853d a8af b43e 973e e2bf 3993 c03e
00000300: aee0 bfbf 36c5 26be e040 c3bf f7f3 c0bf
00000310: 437f 89be 42cb 343f 4038 153e a3a0 5bbd
00000320: 7de1 e1bf ee0d 433f 1cc1 bd3e c509 e6be
00000330: 8f04 7abf 29a8 fbbf 6ad9 d6bf 0e40 273f
00000340: 4e86 553f f3e4 b8bf 0b34 b8be 464f a53e
00000350: 5f57 333f adb5 bf3e bb61 40bf 1280 cdbf
00000360: 25ae 293f 1fb1 82bf abe6 9b3e 8f91 96bf
00000370: 8e11 863d 9797 b6bf 6c7f 253e ebcd 39bf
00000380: 4202 84bf 04d6 40be c4e7 eb3d ad36 343f
00000390: c375 6dbc 9de7 c23e 4998 063d 882d c2be
000003a0: 6439 33be 525d 143e 7df9 4fbe 520f 363f
000003b0: 5ccc 333e e025 00c0 3115 dcbf 1265 653e
-0.5740525 -0.9199676 -0.8826304 -0.19223294 -0.5920041 0.7966066 0.42724434 -0.5952058
-0.7752466 -0.03323027 -0.45262656 -0.23909917 -1.231377 0.5172355 -0.562268 -0.7813154
0.24959414 -0.0611822 0.14315034 0.18955241 -0.22928485 -1.833996 -0.40914226 0.2831791
-0.30659637 -0.12522069 0.39052936 0.29899895 0.08837105 0.21767615 -0.5368159 0.07211054
-1.2465874 -0.33744854 -2.7543874 -0.038082175 0.10178024 -0.4976213 0.25503743 0.07109322
-0.08709149 0.15528332 -0.71939737 0.37238058 -0.9729448 0.4063573 0.25912818 -0.5468377
-0.32053322 -1.2888825 -0.091549635 -0.67177546 -0.04609724 1.1174772 -0.3248656 -0.7359518
-0.1136298 -0.7072915 -0.1460651 0.17795064 -0.12681007 -1.6102096 0.46312517 -0.9431771
0.53349876 0.104049064 -1.3875064 0.12508593 0.04570702 0.31467697 -0.26757875 -1.9823958
0.26706177 0.002892576 0.4145084 0.026329763 -0.45895547 0.122996695 0.22048184 0.21266524
-0.5193853 -0.17654116 -1.7521582 0.4042804 -0.55569184 0.009189977 0.14565256 0.12156756
-1.9977645 0.11668783 0.6505607 0.17381579 0.75274146 -1.5216664 -1.4517761 -0.29271019
-0.012192399 -1.0369428 0.5838705 -1.8348418 -0.670967 -0.86762786 -0.77667236 -0.032453842
-0.7742437 0.12045847 -1.6283612 0.17110705 -0.10951642 0.47974765 -0.76126474 0.26198795
0.13371731 0.14172523 -0.8692907 0.49234957 0.6194704 -0.5205382 -0.39116484 -2.5858068
-0.87865925 -0.09791517 -0.7771723 0.16347747 -1.9022056 0.82687104 0.014828907 0.5236251
-1.5797975 -1.8825865 -0.21941079 -1.7840517 -0.65598965 0.4077395 -0.21647267 -0.16487171
0.39043224 0.14288183 0.015280717 0.14644858 0.8448246 0.16890822 0.6921812 -1.5260782
-0.8304868 -1.0354487 -0.42388004 -0.30286178 0.31736973 -1.2632154 0.65767443 -0.58057505
0.035657424 -0.42243817 0.61673445 -0.61087483 -0.52129036 -0.4934985 0.41704237 -0.82467955
0.047710273 0.42706415 -0.50623065 -0.14361858 -4.0188603 -1.4646641 0.06543921 0.49876305
-0.075090885 -4.0934825 -0.23817466 -0.2639383 -0.67371887 0.06913205 -1.0197564 0.80804634
0.20419395 -0.64670455 -0.16282402 -0.5938833 -0.38184667 -0.9183099 0.9264834 -1.7553859
0.12411878 -0.15840323 -0.9538999 0.4454219 0.065198205 0.35290265 -1.7675351 0.37612322
-1.4990442 -0.16286168 -1.5254173 -1.5074452 -0.26854905 0.70622647 0.14572239 -0.053619992
-1.7646939 0.7619313 0.37061393 -0.4492933 -0.97663206 -1.9660693 -1.67851 0.65332115
0.8340806 -1.444487 -0.35977206 0.32287043 0.7005519 0.37443295 -0.75149125 -1.6054709
0.6628135 -1.0210303 0.30449423 -1.1763171 0.06546317 -1.4265012 0.16161889 -0.7257983
-1.0313189 -0.1883164 0.11518815 0.7039593 -0.014493409 0.38067332 0.032860074 -0.37925363
-0.17502362 0.14488724 -0.20310016 0.71117127 0.17558426 -2.0023117 -1.7193967 0.22401837
